hand_pose_recognizer/keypoint_classifier.tflite (tflite, 6416 bytes, 6 tensors)

dense_2/bias f4 [4]
000000 b5 91 82 bd 58 c7 17 be e4 41 17 3f 42 20 b0 be
       -0.06375448 -0.14822137 0.59084916 -0.3439961

dense_1/bias f4 [10]
000000 d2 0a 6c bc c8 79 2f 3f ac f3 a8 3d cc 3c 12 3f
       -0.014406877 0.685452 0.08249602 0.5712402
000010 c8 a9 8b 3e 6c fd bc bc 99 96 3a 3f e1 7f e6 bd
       0.2727797 -0.02307006 0.72886044 -0.1125486
000020 f8 24 3a 3d c6 63 94 bd
       0.045445412 -0.07245593

dense/bias f4 [20]
000000 76 05 f4 be b5 17 6b be 69 21 e8 be ef 22 09 bf
       -0.47660416 -0.22958262 -0.4533799 -0.5356893
000010 11 4e e8 be cb e9 06 bf 62 6e ba be f8 65 bb be
       -0.4537206 -0.5270049 -0.3641234 -0.36601233
000020 09 6e 3b bf 25 59 88 3e d6 ab d9 be f9 82 aa be
       -0.73214775 0.26630512 -0.42513913 -0.3330305
000030 3a 64 67 be 5a a0 fd be cb fd ef be b4 c7 c8 be
       -0.22596827 -0.495364 -0.46873316 -0.3921486
000040 30 f7 10 bf e3 fb b3 be 00 ac 0a bf 29 29 dc be
       -0.5662718 -0.35153112 -0.541687 -0.43000153

sequential/dense/MatMul f4 [20, 42]
000000 e0 bb 5d be 90 02 7c 3d be e2 8a be 30 2d 5d be
       -0.216537 0.06152588 -0.27126116 -0.21599269
000010 d7 e9 81 be 04 2c 4f be 25 5e ad be 08 a8 4c be
       -0.25373718 -0.20231634 -0.3386089 -0.19985974
000020 7d 8b de be bf 32 ff bd 71 06 79 3d 5f 51 6b bc
       -0.43465796 -0.12460851 0.06079716 -0.014362662
000030 44 a1 b4 bc 4f 1c dc bc 11 6e 2b bd c8 a1 0e bd
       -0.022049554 -0.026868967 -0.041853014 -0.034822255
000040 73 09 9e bc 7d 16 cc bc 4b d0 19 3c 9d 00 cb bd
       -0.019291615 -0.024913067 0.00938804 -0.09912226
000050 31 e9 6a bd f6 7c 38 3c eb 01 3b 3e 9b cb 4b 3c
       -0.057351295 0.011260262 0.1826245 0.01243868
000060 c0 28 e8 3e 9f 45 9b 3e ec ee 92 3d 8b 7f 8f bd
       0.4534359 0.30326554 0.07174477 -0.07006749
000070 b4 b4 fb bc e3 db 1e bd 0b 24 07 3e 35 d5 0b 3e
       -0.030725814 -0.03878392 0.13197343 0.13655551
000080 a0 6a 2d 3f 88 62 d8 3e f6 26 da bc ea 9d 8e bd
       0.6774082 0.42262673 -0.026629906 -0.069637135
000090 e0 dd bf bd 82 9d f3 bc dc 47 1f 3d 81 ab 1b bd
       -0.09368491 -0.029738192 0.03888689 -0.038005356
0000a0 82 d1 1e 3e 4d c5 8e 3e 90 7f 0c bd 2c 54 4a 3e
       0.15509608 0.27884904 -0.03430134 0.19758672
0000b0 28 0f bb be fe 58 1f be 2a 12 7c be 47 80 02 3b
       -0.36535 -0.15561292 -0.24616304 0.0019912885
0000c0 04 72 e9 bd c5 db 74 3c 09 4f 15 be 92 4b de bb
       -0.113987 0.014944975 -0.14580931 -0.006783911
0000d0 1e ea 9b bd de a0 0e bd 89 78 44 bd 5f 4e ed bc
       -0.07613014 -0.034821384 -0.047966514 -0.028968034
0000e0 59 f3 e9 3d 52 ce 62 3d c6 e3 a0 3f 51 0e db 3e
       0.11423368 0.055372544 1.2569511 0.4278436
0000f0 91 8a 42 bd 07 20 5c 3d f4 c9 af bd 27 90 17 bd
       -0.04749543 0.05374148 -0.085834414 -0.03700271
000100 f9 b0 1e be 77 36 b8 bd f7 06 d3 bd 66 01 4c be
       -0.15497197 -0.08994763 -0.10304063 -0.19922408
000110 fc 38 82 bd c1 43 ed 3d 59 75 8d bd 68 d4 af bd
       -0.06358525 0.11585189 -0.06907148 -0.08585435
000120 36 7d 95 bd 5a 8e 11 be fd 28 e9 ba 5b 24 58 bd
       -0.07299273 -0.14214459 -0.0017788705 -0.052769046
000130 95 70 90 bc ae 12 0f 3e 79 e0 81 bc f3 59 11 3d
       -0.017631808 0.1397197 -0.015854107 0.035486173
000140 2f 16 4a bd fe e6 97 bc f5 48 1f bd d5 c2 24 3d
       -0.049337562 -0.018542763 -0.038887937 0.04022487
000150 6c e6 a9 bd 40 b2 76 be 94 c4 9d be d2 c8 95 3a
       -0.082959026 -0.24091434 -0.3081404 0.0011427647
000160 4a 79 03 3d 0b 6b 7c 3e 23 5b 66 3e d5 10 ba 3e
       0.032098092 0.24650209 0.22495703 0.36340967
000170 65 45 27 3e 80 ec fc 3d 40 43 a8 3c 53 f7 d0 3e
       0.16335066 0.12349796 0.02053988 0.40813693
000180 96 fe a2 3d bb 83 28 bd 65 34 40 be 17 41 2c be
       0.07958715 -0.041141253 -0.18769987 -0.16821705
000190 88 7a 09 be e2 da 98 be a2 47 95 3e bd 7e 5d 3e
       -0.13425648 -0.29854494 0.29156214 0.21630378
0001a0 85 a4 c2 bc 34 ee 3f 3e 17 b9 8d bd 84 5b 0d be
       -0.02376009 0.18743211 -0.06920069 -0.13804442
0001b0 46 a4 9a bd 1f bf 7e be 6d 6f 22 3d 76 ea 8b 3e
       -0.07550864 -0.24877594 0.039657045 0.27327317
0001c0 c8 c9 a1 bd c1 86 3c 3e 56 01 b6 bb d6 f1 31 be
       -0.07899815 0.1841078 -0.0055543585 -0.1737741
0001d0 64 80 17 bc 85 8d 54 be d4 c3 2e 3f 37 65 ed 3e
       -0.009246919 -0.2075711 0.6826756 0.46366283
0001e0 df 07 75 3e 67 33 e3 3e 88 97 18 bd 69 fb 71 3d
       0.23928784 0.44375154 -0.037253886 0.059077654
0001f0 49 8c 5b 3c db 06 5d bd 54 1a c6 bd b8 02 e4 3d
       0.013400146 -0.053961616 -0.096729904 0.11133331
000200 2a ea b3 be b8 f4 96 3d e6 e3 d2 be e1 a6 c2 be
       -0.3513959 0.07370895 -0.41189498 -0.38017944
000210 a7 69 cd be 95 25 89 be e1 6c 03 bf 4d c1 d1 be
       -0.4011967 -0.26786485 -0.5133801 -0.4096779
000220 f7 03 05 be fc 98 f7 bc 7e 2e 2b bd b7 b0 e4 3d
       -0.12989794 -0.030224316 -0.041792385 0.11166518
000230 e7 3d 9e 3e 44 0b 34 3e bc f0 48 3f c9 86 8e 3d
       0.30906603 0.17582422 0.7849233 0.06959302
000240 fe 40 fb bd d3 f0 fb 3d dd c6 8f be c1 b7 28 bd
       -0.12268256 0.12301793 -0.28081408 -0.041190866
000250 5b e9 ce bc 65 9c 1b 3d f7 26 8e 3d b8 f6 ed 3d
       -0.025257757 0.037990946 0.06941026 0.116193235
000260 2f c3 07 3c 1f 97 60 be f9 e7 a3 be 72 f9 fa bd
       0.0082862815 -0.21932648 -0.3201292 -0.12254609
000270 11 23 3e be 0f 79 1b 3e 2e 3a 29 3d 8a 1f ac 3d
       -0.18568064 0.15182899 0.04131525 0.08404453
000280 85 46 bc 3c 21 68 8e bd 54 19 cc be be df 11 3d
       0.022982845 -0.06953455 -0.39863074 0.035613768
000290 e4 75 24 be f0 f1 1e bd 7f c4 5d bd 28 0b 01 bd
       -0.16060597 -0.03880495 -0.05414247 -0.03150478
0002a0 00 51 7d bb ac ee 6b be 04 cb a8 3d fa 57 7c 3d
       -0.0038653016 -0.23040265 0.08241847 0.06160734
0002b0 68 10 4c 3e b0 f0 96 3d 09 2d 2a 3e cf 72 6f bc
       0.19928133 0.07370126 0.16618742 -0.014614775
0002c0 52 53 00 3f 65 28 a3 be 30 63 32 3e b2 e8 89 be
       0.50127137 -0.31866756 0.1742065 -0.26935345
0002d0 0e 82 1d 3d 48 8a 88 3d 0f 8f a8 be 30 72 2e 3e
       0.038454108 0.06667 -0.32921645 0.17035747
0002e0 de fd 8a be 2e f9 f0 3d 72 c0 5e 3e fc 53 91 be
       -0.2714681 0.11766277 0.217531 -0.28384387
0002f0 30 47 e5 3d cd 87 6e 3d ba d3 ec bd a2 6f e1 bd
       0.111952186 0.05823498 -0.11563821 -0.110076204
000300 79 49 0c be 3a d1 81 3d 9c a6 0e 3e 02 97 92 be
       -0.13699903 0.06338735 0.13930744 -0.28630835
000310 2d 0a 1c 3e 79 d8 05 be b8 6f 51 bd 03 dd 64 3e
       0.15238257 -0.13070859 -0.051131934 0.22349934
000320 1a 0a 6d bd ef 3b a4 3e e6 28 5c 3e 3d a2 9f be
       -0.05787096 0.32076976 0.21499977 -0.31178465
000330 41 80 5f 3e 98 19 22 bc 7a b2 11 3e 0e 33 b1 3d
       0.21826269 -0.009893797 0.1422824 0.08652316
000340 1e 81 03 be 7c 6c e8 3c 7a 89 9d 3e 38 a1 20 3d
       -0.12842223 0.028372042 0.3076895 0.03921625
000350 1c 2a 7b bf 83 f8 50 be 29 e2 0f bf 95 03 80 3d
       -0.9811113 -0.204073 -0.5620447 0.06250683
000360 ac f5 0f bf 98 c8 11 bd 2f 83 c6 be f8 0a a0 3b
       -0.5623424 -0.03559169 -0.3877196 0.00488412
000370 f2 9c b5 3d 08 b9 ca bc b8 a2 28 3c e2 25 8d 3d
       0.088678256 -0.024746433 0.010292701 0.06891991
000380 4d 3f e3 bd 7b 83 8a 3d 77 3e 16 be e2 88 6c 3d
       -0.11096058 0.06763359 -0.14672266 0.05774773
000390 87 ed 64 3d 24 03 43 3c 80 ac 2c b6 c8 97 65 3d
       0.055890586 0.011902604 -2.5730405e-06 0.056052953
0003a0 a6 c7 e5 3e f3 a7 28 3e 15 56 25 3f 02 5f 5c be
       0.44878882 0.16470318 0.64584476 -0.21520618
0003b0 57 27 08 3e c2 4b 9c 3b f7 5b b1 3b fe be 10 3d
       0.13296257 0.004769773 0.0054125744 0.035338394
0003c0 5d 0f 9f 3e c5 4e 12 be c8 5f 38 3f 2e 08 22 be
       0.3106641 -0.1428786 0.7202115 -0.15823433
0003d0 fa c5 88 bc 0c e4 10 be 66 b7 d0 3c 18 cb 7a 3d
       -0.016695965 -0.14149493 0.025478076 0.06122884
0003e0 a8 72 85 3e 0b 02 30 be b8 93 b4 3e 3c 4c c5 bc
       0.26064038 -0.1718828 0.3526895 -0.024084203
0003f0 10 17 82 3e 20 b6 32 3c 2b 8f ac be fa e5 69 be
       0.2540822 0.01090768 -0.33702978 -0.22841635

sequential/dense_1/MatMul f4 [10, 20]
000000 36 d3 23 3e 44 25 13 3d d3 11 1c 3e e7 79 01 3f
       0.1599854 0.03592421 0.15241174 0.50576633
000010 2b 43 8a 3e b9 4d b2 be 95 eb a1 3e 06 2d d4 bd
       0.2700437 -0.34824923 0.31625047 -0.1036015
000020 7f 72 89 3e b6 02 5b 3e 22 c5 11 3f e6 7e ff 3e
       0.26845166 0.21387753 0.56941426 0.49901503
000030 d5 b4 3c 3e 6c bb 81 3e 44 59 6a be 8a 11 54 bd
       0.18428357 0.25338304 -0.22885615 -0.05177454
000040 8b 79 45 3f 98 9e a2 be 5b 0c 90 be 77 cf 53 3f
       0.77138585 -0.31761622 -0.28134426 0.8273844
000050 cc 20 fc be 5b a4 a0 3e 70 d4 e3 3d 95 0d 15 3f
       -0.49243772 0.31375393 0.111245036 0.5822385
000060 3c f3 02 be f4 4f b0 be 59 9b 4a 3f 0d f1 2b be
       -0.12788099 -0.34436 0.7914329 -0.16791172
000070 3b 4b e2 3e 93 80 3d 3f da f7 35 bf ef 0f 08 3e
       0.4419802 0.74024314 -0.71081316 0.13287328
000080 d2 6d c6 be c3 a8 9b 3d e2 20 17 3f d5 63 35 3f
       -0.3875566 0.07600548 0.5903455 0.70855457
000090 cb a8 2b 3e 47 a9 fd bd 5b b6 9e 3d 9c 2d 1b bf
       0.16763608 -0.12385803 0.07749625 -0.6061647
0000a0 0e 89 ec 3e ba 2c 53 3e 8d eb 25 3d 3b c7 da be
       0.46198314 0.2062253 0.04050784 -0.42730126
0000b0 02 d5 05 bf 17 c3 0b 3f 57 fb 71 bd fc 7a 94 3e
       -0.5227815 0.5459456 -0.059077587 0.2900008
0000c0 a3 54 68 3e c7 e0 42 3e eb 67 85 3e 41 65 c0 3e
       0.22688536 0.19031058 0.26055846 0.3757725
0000d0 8d 2c 53 bf 63 85 0d bf d3 aa ad bc 8a b2 a4 be
       -0.82489854 -0.55281657 -0.02119962 -0.32167464
0000e0 02 07 ad be 1d 1c 2c 3f 4c f2 b3 bd 2b e2 80 3e
       -0.3379441 0.672304 -0.08786449 0.25172552
0000f0 00 e9 df bd ed 5b d7 3e ef 1d de 3e b3 7b 17 be
       -0.10933113 0.4206232 0.43382213 -0.14793281
000100 09 31 56 3e 2f d8 e8 bd 26 a7 e1 3e 8b 5e bc bd
       0.20917143 -0.11369359 0.44072837 -0.0919772
000110 58 be 32 3d 55 64 82 bf 4c 39 35 be 4c 9d 76 be
       0.043638557 -1.0186869 -0.17697638 -0.24083441
000120 20 4c 36 bd 68 24 07 be 1a d1 9e be b5 90 81 3e
       -0.044506192 -0.13197482 -0.31018907 0.25305715
000130 ce bc 44 3d 6c 0c 5a be 63 b2 b3 3e 5c 35 f8 3d
       0.04803162 -0.21293801 0.35097036 0.121195525
000140 b8 41 65 3b a5 a9 2c bf db 7f 67 3f 0b c3 22 3f
       0.0034981798 -0.67446357 0.90429467 0.6357886
000150 b6 47 16 3f ac f5 8c 3e d8 5d 87 bd 3c 19 d0 3e
       0.5870317 0.27531183 -0.06609696 0.40644252
000160 70 a8 50 3f bc a9 a4 bc 5e 4f 38 be c0 9a 54 3d
       0.81507015 -0.020100467 -0.17999026 0.051905394
000170 41 8a 3d be 6c dc cc bd 59 06 d1 3e f3 72 46 bf
       -0.18509771 -0.1000298 0.40825155 -0.7751915
000180 51 c2 bc be df d7 8c be 5c ee 0e 3f 33 7d c4 3d
       -0.36867002 -0.27508447 0.5583246 0.09594192
000190 37 e1 38 3f 0e 60 88 bd eb cd 98 be 9f 73 84 3e
       0.7221865 -0.06658946 -0.29844603 0.25869462
0001a0 1a 0a 99 3e 26 5c e6 be eb 01 0d 3e 23 99 1e 3f
       0.2989052 -0.4499218 0.13770263 0.6195242
0001b0 99 a7 bb be c8 d2 06 bd 61 e2 45 3f 4c 82 cf 3e
       -0.36651304 -0.03291586 0.7729855 0.40529096
0001c0 3b cf 91 3e 20 6d 4c 3f 6e bc 96 3d bf 84 cc bc
       0.28478417 0.7985401 0.07360159 -0.024965642
0001d0 46 39 f5 3d af 7f bb be 0b 4e f8 3d 2c b9 2a 3f
       0.11973815 -0.36620852 0.121242605 0.666888
0001e0 59 10 a3 3d 5a 9d 97 3f 22 b5 11 be 1a d4 f0 3d
       0.079621024 1.1844895 -0.14229253 0.11759205
0001f0 ac a0 f0 bc 75 8d ce 3e fe dd a8 be 39 c0 a5 3e
       -0.02937349 0.40342298 -0.32981867 0.32373217
000200 8f a6 40 bd e5 27 08 3e 59 e9 1b 3f ec ee 04 3f
       -0.047033843 0.13296469 0.60902935 0.51927066
000210 cc 65 8a 3f a7 3c a5 3d cd 06 a1 3e 11 5a 4f 3f
       1.0812316 0.08068209 0.314505 0.80996805
000220 fb 8f 24 3e 3c c9 67 3f 0c 66 e6 3d fa 27 ef 3e
       0.16070549 0.90541434 0.11249933 0.46710187
000230 ce 2f e8 be 05 fe d4 be 1d ff 60 3d fa 10 91 be
       -0.45348972 -0.41600052 0.054930795 -0.28333265
000240 28 b7 b3 be 72 3f c7 be c4 8d 84 3e 4f 46 0b 3f
       -0.35100675 -0.38915592 0.2588941 0.5440416
000250 bf 4a 55 be 11 82 86 be 3d b3 3d be 44 ef 2f be
       -0.20829295 -0.26271108 -0.18525405 -0.17181116
000260 10 31 0f be a6 3b 80 bd 7f d9 33 be 03 0a 4b be
       -0.1398356 -0.06261377 -0.17563437 -0.19828038
000270 02 f2 b2 bd 80 e6 f4 be ad fc ce bb 20 93 9c 3e
       -0.087375656 -0.47832108 -0.0063167424 0.30580997
000280 d3 26 fe 3e 69 2c f0 3d 51 6f 2b 3e 50 97 6a 3e
       0.49638996 0.117272206 0.16741683 0.22909284
000290 dc f7 d4 be 50 75 11 be f1 b8 d8 3d 26 1e 0d 3f
       -0.41595352 -0.14204907 0.1058215 0.5512413
0002a0 b1 59 b2 bd 06 0d a1 3c c4 62 04 3f c8 fe 37 3f
       -0.087085135 0.01965953 0.51713204 0.7187314
0002b0 c4 2f 32 be a6 25 c9 bd bc a9 e5 bd 4b e4 91 3d
       -0.17401034 -0.09821634 -0.11214015 0.071236216
0002c0 48 ac 9a be 26 ec 6d be cb c0 ac be dd 98 0a bf
       -0.30209565 -0.23234615 -0.3374084 -0.541395
0002d0 b1 5f 48 3f 01 33 d8 be 4c 32 ee 3d 38 d2 d8 3e
       0.78271013 -0.42226413 0.11630687 0.42347884
0002e0 ff 2d fd 3e ad 0b 24 3f c1 e0 60 3c 88 28 a6 3e
       0.49449155 0.64080316 0.0137254605 0.32452798
0002f0 ca 86 0a 3f 41 7c a6 3d 55 ca 96 3e 1f 1c fb 3e
       0.5411192 0.08129168 0.29451242 0.49044892
000300 ee d7 8f bd 75 37 22 3f 0e 19 a5 3e 5e ba 10 bf
       -0.07023607 0.6336587 0.32245678 -0.56534374
000310 06 4e 14 3f 18 c0 a4 be e9 c1 1b 3f 65 87 63 3e
       0.57931554 -0.32177806 0.6084276 0.22219618

sequential/dense_2/MatMul f4 [4, 10]
000000 8a 57 24 3f 79 e8 3b bf bb 3f 77 3f 6b ff 42 bf
       0.64196074 -0.734016 0.9658162 -0.76170987
000010 2d d0 5e bf f1 40 7f 3f 1b 04 05 3f 93 c1 84 3e
       -0.870364 0.9970847 0.5195939 0.25928935
000020 20 ae 5e 3f c8 69 a2 3e ef b4 0f 3f 67 72 a1 3e
       0.86984444 0.3172133 0.5613546 0.31532595
000030 f0 e8 83 be 1b 6c aa 3d 14 5d 41 3f 69 d7 90 3e
       -0.25763655 0.08321401 0.7553265 0.28289345
000040 18 3e 7a be e5 f5 a5 be 1b ff 6b be 80 82 39 3f
       -0.2443775 -0.32414165 -0.23046534 0.7246475
000050 13 b7 a0 3d ec 5c 5e 3f 38 b1 57 bf ff ea 31 3f
       0.07847419 0.8686054 -0.8425479 0.694992
000060 f5 ab fe be 7f 41 94 bf fc b7 85 3e 9a 51 05 bd
       -0.49740568 -1.1582488 0.2611693 -0.032548524
000070 3a 83 76 bf 4e 76 ae be d2 2f 00 bf 81 57 84 bf
       -0.96293986 -0.34074634 -0.5007297 -1.0339204
000080 c2 6c b6 be d7 a0 61 bf 0a c3 8a bf 17 6a f0 be
       -0.3562985 -0.8813605 -1.0840771 -0.4695594
000090 4a cf a7 bf a1 a3 9a 3e 39 4e c4 3e 19 21 da be
       -1.3110135 0.30202964 0.3834093 -0.42603377
