hand_pose_recognizer/keypoint_classifier.tflite (tflite, 6416 bytes, 6 tensors)

dense_2/bias f4 [4]
00000000: 18d9 46be 3e05 d1bd a37e 043f 7ee3 debe
-0.19418752 -0.10206078 0.5175573 -0.43532938

dense_1/bias f4 [10]
00000000: dbaf 353f e5f9 3c3e d945 4bbe 0091 573e
00000010: 6892 113e 7213 5b3f 421f 093f 9f42 f63e
00000020: 26a2 1a3e 2118 383e
0.7097146 0.18454702 -0.19850864 0.21051407 0.14216006 0.85576546 0.5356332 0.48097703
0.15100917 0.17977954

dense/bias f4 [20]
00000000: 435e a6be b24b f0be 1578 c23d 64dc b8be
00000010: 870d fbbe 8521 f6be 7b85 06bf 7276 12bf
00000020: e9a8 6fbe e1f3 21bf c41f 8fbe 7e64 40bf
00000030: b46c 09bf eb35 f4be aa00 cabe 18fd 04bf
00000040: 3748 88be 2e62 ab3e 4a5f 5bbf 8fa0 5ebf
-0.3249379 -0.4693275 0.0949556 -0.36105645 -0.49033758 -0.48072448 -0.52547425 -0.57211983
-0.23404278 -0.63262755 -0.27953923 -0.7515334 -0.5368149 -0.47697386 -0.39453632 -0.5194869
-0.26617596 0.33473343 -0.85692275 -0.8696374

sequential/dense/MatMul f4 [20, 42]
00000000: de39 813e fd9a 16be 1409 df3b 9169 0c3e
00000010: c600 8dbe 4bc0 a53d 0a2e b6be 52d7 d23d
00000020: 4df9 6ebf 3496 813e 58a7 3b3c 9f81 b43e
00000030: 46e6 b63d 3d96 c73d 152d 863d 7f4c a63c
00000040: dd52 323d 8bbb 5e3d 4a38 a33b 3d4c b03e
00000050: 4a4d 3b3c 4538 0b3c 30bb 8d3e be40 86be
00000060: ec79 873e 715a debe 0a21 aebc 6f23 4d3e
00000070: 9aba 46bd d817 423c 3261 4a3e fea7 c6be
00000080: b4ac 333f 6d6d 39be 59f2 87be f7e1 113e
00000090: c5b7 bfbd fb87 ccbd 1003 3f3e 06e1 b4bd
000000a0: e63f f63e db61 86be 188c 973d b805 92be
000000b0: d584 9fbe 35e5 40be 029c 7ebd be99 76bc
000000c0: 1ae5 1cbc 4fc1 b73d 925f 6a3e df7d f83d
000000d0: 4139 a4be 3504 2fbe 11e4 61be a00a 0bbe
000000e0: b074 57be dd85 88bd fa21 0cbe 9430 8bbd
000000f0: 4b8b f9be 58e5 f4be 5c34 20bd 110f bdbc
00000100: 3517 823e 2559 1c3e 0240 a43e 31ff cc3d
00000110: 1c58 89be 0d6c 45be e9cf de3c e97c bf3c
00000120: af52 3d3e d32a e23d 16cd 713e 0542 003e
00000130: f401 09bf 9a77 9cbe 6b0b 18be 9056 f53c
00000140: ffa3 253d cc97 0e3c 78a4 b03d 3bb5 883d
00000150: 94e4 683e dc20 d83d 4314 9bbe 02cd 303d
00000160: 5784 78be d9b5 7a3d 8729 acbd 4b5c a93d
00000170: 13a6 473b aa54 003e 57e9 99be 0ad8 a83c
00000180: a8ed 44bd 42c4 fabd 05ce d33d 4bbe cebe
00000190: dd41 6a3f 2ec7 fcbe 4a2d 1ebd 94f8 b8bd
000001a0: fe38 2e3d be50 833d 2d84 62be aab8 903e
000001b0: 6b1a a1be f1cb 8c3e 1245 893e b893 7abe
000001c0: d5be 913d cf88 79bd 55a5 f5bd 625c 593e
000001d0: 9abd 50be c9ee aa3e 7dc4 a73e cb74 b8be
000001e0: 9dcc 453e fea0 11be 1cf6 503c ad38 3c3e
000001f0: 4fca f5bd 5679 1f3e c40a 7b3e d2b4 19be
00000200: 26fc df3d 545a f63e 98d6 973e 1599 6c3e
00000210: 587e 993e b69f 553e 4602 c83e 07cb bd3e
00000220: 4403 f8bd fcd0 d03b 6168 12bd b24e ab3d
00000230: e798 1cbd 3a8c f83c e9ce 87bc 92e5 b0bd
00000240: 091a 23bc 78c6 7cbc db23 de3d a029 0d3e
00000250: 8207 16be 59a9 d8bd 1b56 a1be 875a 56bf
00000260: b023 5a3e 48fc b93d 845f a43c ca5a 493e
00000270: 03b9 84be bdd3 27be 0496 d6be 98f7 23be
00000280: bcad 473e 4c20 f03d d664 ef3c b684 583e
00000290: 5cc7 0e3d a020 633d 875a aebe 7b89 0dbf
000002a0: 34f5 ae3d c821 38bd 4c94 ae3e 149f 5fbe
000002b0: 2623 8e3e 059e 96be 10a3 3b3e 37f3 6cbe
000002c0: 02fb a13e 5bd5 46bd cdb2 cf3e f146 c93d
000002d0: 8a91 2e3d a881 583e 535b 8bbe 999b 103e
000002e0: 353a d8be fffd 333e becf a13e 3aca 68be
000002f0: 247c 0e3e 64b1 8f3d 2a5b 13be 0101 383d
00000300: 459b 08be fced 213d 47bb fb3e 20bc 2dbe
00000310: 8420 c33d 4619 8f3d 101b d8bd 0d71 48bc
00000320: 1c6d fcbd 6a8b 883d 5805 ef3e 4e8c 01bd
00000330: 3ea8 9c3e c72c 93be 35be 9ebc 3bb3 cb3c
00000340: 4bc8 063c 0417 c9bc 70a1 76bd b682 913e
00000350: 4d48 193d f77b cd3e 6cf8 af3d db73 cf3e
00000360: c4f2 8cbd 2c51 543e a66e babd 3743 67bf
00000370: ea3c b1bd 302c 6e3e b2e0 6b3c 63d9 0b3c
00000380: d87f e93d 3944 b63d cb3b 053e 3449 d73d
00000390: 085b 9bbe 5575 133e 73c3 883c b74f 8c3a
000003a0: 2061 793d cd06 783d 3a40 20bd 5157 6e3d
000003b0: 8c0d 2cbe f4df dbbb 53e0 36bc 5a70 7fbe
000003c0: 5c41 c13d 8ea9 723d eb8f ea3c 9c94 a43d
000003d0: f0f5 d1be 490d 3dbf 4310 633d b3ba a8bd
000003e0: 94ef e43d fee7 503c 0b68 3e3c 44de 6c3d
000003f0: e297 363e 8db7 48be 2ac2 ba3e bd9e 94bd
0.25239462 -0.14707561 0.006806502 0.13712145 -0.27539653 0.080933176 -0.35582 0.10294975
-0.9334915 0.25309908 0.011453472 0.35255143 0.0893064 0.097454526 0.065515675 0.020300148
0.043536056 0.054378074 0.0049810754 0.34433165 0.011432001 0.008497302 0.27681875 -0.2622127
0.26460207 -0.43428376 -0.021255989 0.20033048 -0.0485178 0.011846505 0.1976364 -0.38800043
0.701854 -0.18108149 -0.26552084 0.14246355 -0.09361223 -0.09986874 0.18653512 -0.08831982
0.48095626 -0.26246533 0.07399768 -0.28519988 -0.3115603 -0.18837436 -0.0621605 -0.015051303
-0.009576106 0.089724176 0.2288802 0.12133383 -0.3207493 -0.17091449 -0.22059657 -0.13578272
-0.21040606 -0.066661574 -0.13684836 -0.06796375 -0.48739085 -0.47831225 -0.039112434 -0.023078473
0.2540833 0.15268381 0.32080084 0.100096114 -0.26825035 -0.192795 0.027198749 0.023374991
0.18488573 0.11043324 0.2361339 0.12525184 -0.53518605 -0.3056 -0.14848106 0.029948503
0.040439602 0.008703183 0.0862512 0.06675192 0.22743446 0.105531424 -0.30288896 0.04316426
-0.24269234 0.06120858 -0.08406358 0.082695566 0.0030463978 0.12532297 -0.30060837 0.020610828
-0.04807821 -0.122444645 0.103420295 -0.40379557 0.9150675 -0.49370712 -0.03861741 -0.090317875
0.04253482 0.06411885 -0.22120734 0.28265887 -0.31465468 0.27499345 0.2681051 -0.24470413
0.071164764 -0.060921486 -0.11994425 0.21226647 -0.20384827 0.33385304 0.32767096 -0.36026606
0.19316335 -0.1422157 0.01275399 0.18380995 -0.12001478 0.1557363 0.24515826 -0.15010384
0.109367654 0.4811579 0.2965591 0.23105271 0.29979205 0.20861706 0.39064234 0.3706896
-0.12109998 0.006372569 -0.035744075 0.08364619 -0.038231757 0.030340303 -0.016578155 -0.08637537
-0.009954938 -0.015428178 0.10846683 0.1378541 -0.14651302 -0.105791755 -0.31511006 -0.83731884
0.21302676 0.09081322 0.020065077 0.1966354 -0.25922403 -0.16389365 -0.41911328 -0.16012418
0.19499868 0.1172491 0.029222887 0.21144375 0.034858093 0.055451035 -0.34053442 -0.55287904
0.085428625 -0.04495409 0.34097517 -0.21838027 0.2776119 -0.29417434 0.18323922 -0.23139654
0.31636816 -0.048543315 0.40566102 0.09827984 0.042619266 0.2114321 -0.27218112 0.14121856
-0.42231908 0.1757736 0.31603807 -0.22733393 0.13914543 0.070162565 -0.14390245 0.044922832
-0.1334048 0.0395336 0.4916632 -0.16966295 0.09527686 0.069872424 -0.10552037 -0.012233985
-0.123254985 0.06667216 0.46683764 -0.031627946 0.3059711 -0.287451 -0.019377807 0.024865737
0.0082264645 -0.024547108 -0.060212553 0.28420037 0.037422467 0.4013364 0.085923046 0.40518078
-0.06882241 0.2073409 -0.09103136 -0.90336937 -0.086541966 0.23259044 0.014396833 0.008535716
0.114013374 0.08899731 0.1301109 0.10512009 -0.3034289 0.14400227 0.01669476 0.0010704909
0.06088364 0.06055336 -0.03912375 0.05818874 -0.16802043 -0.006710047 -0.0111618815 -0.24945202
0.094362944 0.05924373 0.028633079 0.080361575 -0.41007948 -0.73848397 0.05543543 -0.08238735
0.111785084 0.012750624 0.011621485 0.057829157 0.17831376 -0.19601269 0.3647626 -0.072568394

sequential/dense_1/MatMul f4 [10, 20]
00000000: e8ba 55bd 1a2f 283f fe70 4d3f 09bf 1d3f
00000010: 503e c83e 0f0f 873f a36d 183f e3e7 513f
00000020: 76d3 313f 044e bf3e 4395 acbe f386 bc3e
00000030: dda0 aa3e 03e7 8c3e fcc7 b43d ce7a a23c
00000040: 0508 d6be 2d1f 3a3f a27e d93d 6bb9 343f
00000050: bbf2 07be b2d2 8a3e e380 d13e f0ca a4bd
00000060: 3f3d 1f3f fec9 3a3f f5ec 4dbe 6ffc 1f3f
00000070: 2e06 4c3e d593 f93e 01d9 debe 5f18 423f
00000080: baa5 253e 6a74 eebc d0ae 08be 4e85 92be
00000090: 96bb 08bf 4123 c53d beb2 9f3d c8b5 403f
000000a0: 465b 07bf 9942 47be 497d 83bd 3fc8 2b3f
000000b0: 8de2 9cbe ab16 8bbe 4c2b 083e 0e6e debc
000000c0: e337 67be ffba 63be e8ad 933e ec3f f7be
000000d0: 339e 1a3f 6af3 453e d308 2a3f ec9f ad3e
000000e0: ac2d 41bd 2a50 0b3f cd21 96be 35d1 b3bc
000000f0: 6922 403f b7b7 00bf e95f 183d 5c84 163f
00000100: 9c3b 11be 296a 88be bd45 923e a1c9 08bf
00000110: ece4 41bd b2de 87be b684 193f 6ea4 f4be
00000120: 5e25 803e 48f1 1d3f 68e0 3d3f 30d3 3d3f
00000130: 873f 873f dac6 993e b12e 85bb c357 63be
00000140: 9c4b 183f 36ab 203e 5914 9ebd afc2 ce3e
00000150: c8e8 f13e d7ac 5c3f 0a50 6c3f bc31 ee3c
00000160: 77f4 ec3b 5ab2 fb3e 3743 52be 8e2f fb3e
00000170: 576d 323f a415 d03d f2cf dc3e 541a 6f3f
00000180: b492 093f 8754 383e 361a 723f f08a 123f
00000190: 1e64 163d e617 1f3f 863d a1bf 2ba1 a9bd
000001a0: 611e ab3e e1c5 0dbb 589f 6fbe 1e61 cfbd
000001b0: 4d5f 7f3e be98 873c 7bcd 543c 9f9a 323e
000001c0: a93a 603d 15d9 663e d871 5ebd 508d 5abe
000001d0: 5a95 04bf 827b 29bc 0869 4ebe 3533 2e3d
000001e0: c635 41be c133 ae3d 26a8 0f3f 9613 99be
000001f0: 5327 5ebe 034a 9bbe a13e 49bf 047e 9dbb
00000200: 614e 383e 788d a1be 1de4 343e 59b5 b9be
00000210: c0df 4ebf 5043 f5be 41c0 7abe 0ab9 85bf
00000220: b108 123e 7ab7 d43b 6889 5abf cf32 1dbe
00000230: e4cb 21bf c0ff c93d 2ad7 af3e 56dc b3be
00000240: 6af9 c5be 4b57 82be 0b18 713e 3fc5 2ebe
00000250: 8b71 4bbd 3d05 e5be f9b0 7d3e 6093 16bf
00000260: ec0c a23e e145 6abf bc1e 21bf 06b4 913e
00000270: 6a64 063d 6969 f6bc b02f 47bf 6575 b4be
00000280: ad8f 36bf 6062 bbbd 44b1 c73d e241 00bf
00000290: a925 02bf eac0 14be 92ae ea3e 5b6d 87be
000002a0: 23f1 8a3e 14ef 9c3d 5d30 143f 072a 223e
000002b0: 616e b13e 8303 113f 2889 053f 5ab3 e83e
000002c0: 2cf5 78bc 746b 46bf 1679 653e 45da 17bf
000002d0: 46f5 b93e 6da3 0f3c b27c 3c3d 7e2b c53e
000002e0: 008a 4a3e a557 89be 15d7 043f 4c0e 64be
000002f0: f1e2 cdbc 4498 e0be efb3 293f 1d82 94bc
00000300: 6265 463e 4366 b3be edb3 44bf 7563 f23e
00000310: 46b9 423f 3f44 b7be 2395 1bbf bee0 253f
-0.0521802 0.6569687 0.8025054 0.6161962 0.3911004 1.055147 0.5954229 0.81994456
0.6946329 0.3736421 -0.33707628 0.36821708 0.33325854 0.27519998 0.088272065 0.019833948
-0.41802993 0.7270382 0.106198564 0.70595425 -0.13276188 0.27113873 0.40918645 -0.0804652
0.6220283 0.72964466 -0.20109923 0.6249456 0.19924232 0.487456 -0.43524936 0.7581844
0.16176501 -0.029108245 -0.13347936 -0.28617328 -0.53411233 0.09625865 0.07797764 0.75277376
-0.5287365 -0.19458999 -0.064203806 0.67102426 -0.30641595 -0.27165732 0.13297766 -0.027152088
-0.22579913 -0.22239302 0.28843617 -0.48290956 0.6039764 0.19331136 0.66419715 0.33911073
-0.047162697 0.54419196 -0.29322663 -0.021950344 0.75052506 -0.50280327 0.037200842 0.58795714
-0.14182895 -0.26643494 0.2856883 -0.5343266 -0.047337458 -0.2653709 0.59968126 -0.477817
0.2502851 0.6169629 0.7417054 0.7415037 1.0566262 0.30034524 -0.004064404 -0.22201447
0.5949037 0.15690312 -0.07718725 0.40382907 0.4724791 0.8620123 0.9230963 0.02907645
0.007231291 0.4915951 -0.20533453 0.4905972 0.6969809 0.101603776 0.431274 0.9339955
0.53739476 0.18000995 0.94571245 0.5724325 0.036716573 0.6214584 -1.25969 -0.082826935
0.33421615 -0.0021632838 -0.23400629 -0.101259455 0.24938698 0.016552325 0.0129884435 0.17441796
0.054743443 0.22543748 -0.05430779 -0.21342969 -0.5179039 -0.010344388 -0.20157254 0.042529304
-0.18868169 0.08505965 0.5611595 -0.29897755 -0.21694688 -0.30329904 -0.7861119 -0.004806282
0.17998649 -0.31553245 0.17665143 -0.3627117 -0.80810165 -0.47902918 -0.24487402 -1.0447094
0.14261128 0.0064915987 -0.85365915 -0.15351413 -0.6320174 0.098632336 0.34343845 -0.3512904
-0.3866685 -0.25457224 0.23544328 -0.17067431 -0.04966883 -0.4473056 0.24774541 -0.58818626
0.31650484 -0.91512877 -0.6293752 0.2845766 0.032810606 -0.03007956 -0.7780714 -0.35245815
-0.7131298 -0.09149623 0.097506076 -0.5010053 -0.50838715 -0.14526716 0.45836312 -0.2645062
0.27137098 0.07662788 0.57886297 0.15836345 0.34654525 0.56645983 0.5216241 0.45449334
-0.015195172 -0.7750771 0.22409472 -0.5931743 0.3631994 0.008766991 0.046017356 0.38509744
0.19779205 -0.2682468 0.5189069 -0.22271079 -0.025132628 -0.4386617 0.6629018 -0.01812845
0.19374612 -0.35038957 -0.76837045 0.47341505 0.76063955 -0.35794255 -0.6077444 0.64796054

sequential/dense_2/MatMul f4 [4, 10]
00000000: a48e 7d3e 0679 83bf 40a7 403f 8d74 323f
00000010: 2095 9d3e 150e 03bf 72fb e43e 96ba ef3e
00000020: a745 223f ef5a 063f 5b0b 5d3f 9bf0 523f
00000030: cbbe 04bf 3b4b 4cbf 5df2 503f 9d79 18bd
00000040: ca12 c5be 1856 56bf fc8f cb3d 78da 55be
00000050: 0e22 2f3f de8e 673e 5f44 39bf 843d e7be
00000060: 78de 0fbf 6aed 633f b8aa 9c3f 571f dc3e
00000070: a54b 81bf 8484 b2bf 47ae 5abf 8b7a d23d
00000080: 271c 843d 9275 87bf d073 a5bf 39a7 a4bf
00000090: 13b8 3bbe 984a 07c0 ea8d ff3d e654 b03e
0.24761444 -1.0271308 0.75255203 0.6970909 0.30777836 -0.5119336 0.44723088 0.4682204
0.6338753 0.52482504 0.8634545 0.82398385 -0.51853627 -0.7980229 0.81619817 -0.037225354
-0.38490897 -0.8372512 0.09939572 -0.2088412 0.6841134 0.22613093 -0.7236995 -0.4516412
-0.56198835 0.8903414 1.2239599 0.4299266 -1.010121 -1.394669 -0.85422176 0.102772795
0.06450682 -1.0582755 -1.2925968 -1.2863532 -0.18331937 -2.1139278 0.1247824 0.34439772
